emotion_cnn.onnx (onnx, 159626 bytes, 13 tensors)

model.classifier.1.bias f4 [7]
000000 67 2b a9 3c ac 63 98 bb fe 42 94 3c ce 84 b4 bb
       0.020650579 -0.0046505537 0.01809835 -0.0055089956
000010 39 eb 5e 3c 50 d6 12 3c 51 a8 65 bb
       0.013605886 0.008962229 -0.0035042951

input_bias f4 [32]
000000 49 32 c4 bd 95 4e 15 3f 85 c2 c0 3e 99 62 a5 3e
       -0.09579904 0.5832303 0.37648407 0.32301787
000010 f8 70 71 3f cd 07 25 3f 6b 03 f1 3e 62 e9 12 3f
       0.94313 0.6446503 0.4707292 0.57387364
000020 6d a8 10 3f bc 27 f3 b8 ae 5a a9 be 17 d8 6b 3f
       0.56507 -0.00011594544 -0.33076996 0.921266
000030 35 6f eb 3e 79 2b c9 be 2a 5e 29 ba 11 34 c5 3b
       0.45983282 -0.3929098 -0.000646087 0.0060181697
000040 13 bf 2a bd 8c 20 94 bc d6 1e bf 3e 4e 78 d2 3d
       -0.04168613 -0.018081926 0.37328213 0.102768525
000050 80 e8 84 be fe 87 eb 3e a0 b6 c4 3e 50 17 7d bc
       -0.25958633 0.4600219 0.38420582 -0.015447453
000060 09 86 ef be 88 67 0a 3f 92 d8 a0 be 16 cc 28 3f
       -0.46781948 0.54064226 -0.3141523 0.6593641
000070 4b 3b 06 be f8 61 69 bd 61 8a bf 3e 78 c4 74 3e
       -0.13108556 -0.056978196 0.37410262 0.23903072

hardtanh_bias f4 [32]
000000 1e d9 9c bc 1e f8 4a 3f a4 5e b8 be 62 58 c9 3e
       -0.019146498 0.79284847 -0.36009705 0.39325243
000010 c5 18 d3 3e b2 8a 39 3f 56 f7 a4 3f 0e c2 e5 3e
       0.41229835 0.7247726 1.2887981 0.44874614
000020 9a 99 0f 40 4d fa 98 bb d0 60 bc 3e d6 92 94 3e
       2.24375 -0.00466851 0.36792612 0.29018277
000030 77 47 8e 3f 7b 44 c4 be e6 ec b9 bb 70 02 b5 bb
       1.1115559 -0.38333496 -0.0056739924 -0.005523972
000040 63 d3 62 3c 37 ae 8d 3c 1d da 3d bf 80 5c 06 bb
       0.013844344 0.017294986 -0.7416094 -0.0020501912
000050 c9 bb 96 be 94 2c c2 3f 1a 12 7a 3f 81 9c 27 b9
       -0.29440144 1.5169854 0.9768387 -0.00015984663
000060 c4 2e 55 3f e0 dc 47 be 66 ac b1 be ed a9 2f 3f
       0.83274484 -0.19517851 -0.34701842 0.6861866
000070 6f 49 38 3f cc c1 8a 3e 83 29 6d 3f de 67 5e be
       0.7198705 0.2710098 0.92641467 -0.2171931

hardtanh_1_bias f4 [16]
000000 33 9d 05 c0 04 fb 46 3f 19 ba b0 bf f7 5f ac 3f
       -2.0877197 0.7772677 -1.3806792 1.3466786
000010 3a 13 7b bd 7a 50 ef be de f8 0d bf 23 90 0a c0
       -0.061297633 -0.46741086 -0.55457866 -2.1650474
000020 e4 c9 52 bf 52 f5 dc bf 29 bf cd 3f c3 2f da be
       -0.8233931 -1.7262366 1.6073962 -0.42614564
000030 ca ce 3c bf 89 57 69 be 0b be 06 40 c9 7f c2 3f
       -0.73753035 -0.22787298 2.1053493 1.5195247

hardtanh_3_bias f4 [24]
000000 6d 39 97 bf 32 33 e0 3e 17 60 2e bf 92 f8 e2 bd
       -1.18144 0.4378906 -0.6811537 -0.11082567
000010 1b 8b ea bd a6 c7 61 bf ce 2f b0 be 90 5b 17 3e
       -0.114523135 -0.88195264 -0.34411472 0.14781022
000020 ff aa 2e be d0 4b 80 bd 5b 97 80 3e eb 0b ba 3e
       -0.17057417 -0.0626446 0.25115475 0.36337218
000030 23 93 1c 3e d3 23 00 40 41 9b b9 3f 7c 99 4c 3f
       0.15290503 2.0021865 1.4500505 0.799217
000040 1b 05 69 3e cb 3a f7 3c c1 79 d1 be cd 62 a4 3c
       0.22755854 0.030179402 -0.40913203 0.020066643
000050 8c 72 d7 3e c1 4d 98 3e 7d a5 50 3e 9a df 99 3e
       0.4207958 0.29746822 0.20375629 0.30053407

hardtanh_5_bias f4 [24]
000000 4c 94 89 bf 34 42 6e bf 4e 51 ab 3e 52 56 01 bf
       -1.0748382 -0.9306977 0.33460468 -0.5052234
000010 3c 62 8a bf a0 b1 9c 3f 24 3c 2f 3f 3d d1 9e bd
       -1.0811229 1.2241707 0.6845114 -0.07754753
000020 c8 0e ed 3d b1 c8 11 3e b5 71 f9 bf 1d e3 39 bf
       0.11575085 0.14236714 -1.9487826 -0.7261217
000030 f2 4b 04 3f af 46 83 bf ca 29 1a 3e 06 79 ec be
       0.51678383 -1.0255946 0.15055004 -0.46186084
000040 f0 fb 8e 3e ae c3 9f be 4c ea 17 bf e2 a5 e6 3e
       0.27926588 -0.3120398 -0.59341884 0.45048434
000050 8c be 84 3f 05 da 59 3f c9 57 c0 bf 9e 2c 7e 3f
       1.037065 0.85098296 -1.502679 0.9928683

hardtanh_7_bias f4 [32]
000000 1f 2e 2a 3f 64 72 b6 3e 30 70 39 bf 6a 69 1f 3f
       0.66476625 0.35634148 -0.7243681 0.62270224
000010 91 29 1f bd 5a f5 9a bf 5e ff 46 be a5 19 98 be
       -0.038858 -1.2106125 -0.19433352 -0.29707065
000020 d8 d8 18 bd 7d d2 a3 bf 8a c7 15 3f 76 86 ae 3f
       -0.037316173 -1.2798611 0.585076 1.3634784
000030 7d 43 35 3f 34 2b 25 3f a1 16 1f be f4 69 20 bf
       0.70806104 0.6451905 -0.15535976 -0.6266167
000040 d3 2a 25 3f da 25 87 be fc a6 07 3f 55 9d b7 be
       0.6451847 -0.26396066 0.5298917 -0.35862222
000050 c0 5a 51 3c 1e 40 c0 3e 6c e7 1e bf 5f 14 cb 3e
       0.012777984 0.37548918 -0.6207187 0.3966398
000060 29 2d f6 be 17 50 71 3f 87 2f 81 be 74 10 82 bf
       -0.4808133 0.9426283 -0.25231573 -1.0161271
000070 d7 8d 39 3e 0c 71 81 bf 1c ac 11 bf 8b 2b f4 bd
       0.18120514 -1.0112624 -0.56903243 -0.11922368

hardtanh_9_bias f4 [32]
000000 06 6e 0d 3d 3f 73 65 3e dd a1 4e be b2 2e 0d 3f
       0.034528755 0.22407244 -0.20178933 0.55149376
000010 36 cf 28 be 12 33 0d 3d e7 f2 95 3e a7 c6 d5 be
       -0.16485295 0.034472533 0.29286882 -0.41753122
000020 fc 85 54 be 1b e5 a6 3d 9c 08 a6 3e 86 36 9d be
       -0.20754236 0.08149167 0.32428443 -0.3070566
000030 cb bb 01 bf b3 04 f9 be 9a 24 09 3e c2 56 bb be
       -0.50677174 -0.48636398 0.13392869 -0.36589628
000040 02 b0 3c 3f 08 cc 83 be ee f8 c1 3c 99 46 72 3e
       0.73706067 -0.257416 0.02367827 0.23659743
000050 c9 ec 47 3f a9 5b a3 be 0f 3e 6a 3e 3e 6a 58 bf
       0.7809568 -0.3190587 0.22875236 -0.8453711
000060 b6 74 80 3e 4a df 69 be 48 9c c7 be 8d ac 16 3f
       0.25089043 -0.22839084 -0.3898642 0.5885704
000070 72 dc 23 3f 3e ef 49 be 6b 30 f5 be 0e a8 21 3e
       0.6400825 -0.1972017 -0.47888502 0.15786764

hardtanh_11_bias f4 [32]
000000 16 e8 f7 be d3 38 ca 3d e7 e6 d4 be a7 38 49 3e
       -0.48419255 0.098741196 -0.41582415 0.19650517
000010 61 ac aa 3d 39 82 50 3e c0 7b 63 be 5f 2e 8c 3e
       0.0833366 0.20362176 -0.22215176 0.27379128
000020 ab 07 b3 bc 87 e8 2e 3f c0 92 92 3e 41 5c 04 3e
       -0.021854242 0.6832356 0.28627586 0.12925817
000030 97 5d a9 3d 4a fe 88 3e 5f c9 8f 3e ed 39 5b be
       0.08269804 0.26756507 0.2808332 -0.21408816
000040 ec 45 ff be a0 e4 f1 be 7f 77 19 3e d6 84 1e 3f
       -0.49858034 -0.4724474 0.1498699 0.6192144
000050 f1 07 06 3f 00 00 4b b5 7e 22 81 bd 6e 85 5d 3e
       0.5235587 -7.5623393e-07 -0.06305407 0.2163293
000060 50 d7 cf bd d6 ee 12 bf 05 ca 8e be 95 35 ee 3d
       -0.101484895 -0.57395685 -0.27888504 0.11631314
000070 3f 32 ff bd 60 4e b6 be fc 7e e5 3e ae 0c a9 be
       -0.124607556 -0.3560667 0.44823444 -0.33017486

hardtanh_13_bias f4 [64]
000000 11 d9 b1 bd a8 f0 9a be 28 5b 52 bf db db bb bd
       -0.0868398 -0.3026173 -0.82170343 -0.091727935
000010 b1 d1 3e bf f3 f5 06 be 5a bf 7c 3e ca 6b 55 bf
       -0.74538714 -0.1317976 0.2468237 -0.833676
000020 84 fb f8 3c 34 52 b7 3f 2e 1f b4 bf 7f 71 93 3f
       0.03039337 1.4321961 -1.4072015 1.1519011
000030 c1 28 70 3e 74 12 08 bf 9a 8a 7a 3e 92 53 64 3e
       0.23453046 -0.5315316 0.24466935 0.22297505
000040 32 80 a4 be 28 5d 33 be 55 4c 8c be 56 44 23 be
       -0.32129055 -0.17516005 -0.27401987 -0.15944037
000050 4d 42 cb bc 93 48 30 bf 3d d3 38 3f 37 ec 0f 3f
       -0.024811888 -0.6886074 0.72197324 0.5621981
000060 d9 a7 2a 3e c5 99 b1 be a0 89 46 3f 4e d8 7c bf
       0.16665591 -0.3468763 0.7755375 -0.98767555
000070 16 61 8a 3e 1d f6 6d bf ff 77 a0 3d d4 52 46 3e
       0.27027196 -0.92953664 0.078353874 0.19367534
000080 ae 55 58 3f 39 58 c7 3e 40 f4 1a 3f 13 19 d0 bd
       0.84505737 0.38934496 0.60528946 -0.101610325
000090 e3 cf d9 bd 37 cd 09 be 7e dd 6c bf 35 3a 2c be
       -0.10635354 -0.1345719 -0.9252547 -0.16819079
0000a0 76 08 75 3f e7 85 5a 3f 2e 47 5b bf 34 7e 07 bf
       0.95716035 0.8536057 -0.85655487 -0.52926946
0000b0 2e 65 24 bf d1 f7 5c be 4c 60 c0 3d 90 2b 80 be
       -0.6421689 -0.2157891 0.09393367 -0.25033236
0000c0 ee bb 22 3f 3c b0 f4 3e 10 81 1c 3f 9b d6 12 3d
       0.6356801 0.47790706 0.61134434 0.035849195
0000d0 a0 ac 92 3f 14 64 19 3f 70 10 53 3f 79 cd 97 bd
       1.1458931 0.5991833 0.82446957 -0.07412238
0000e0 7e 61 74 3f b9 f0 85 bf d2 70 b6 3e c2 a3 22 be
       0.9546126 -1.0464088 0.3563295 -0.15882781
0000f0 98 58 95 be e7 77 38 3f 05 a6 9a 3f ee 33 96 be
       -0.29169154 0.72057956 1.2081915 -0.29336494

hardtanh_15_bias f4 [64]
000000 19 65 b7 be 63 a7 ae bd 22 70 38 3e 05 85 f2 3d
       -0.3581932 -0.0852802 0.18011525 0.11841778
000010 e5 a7 1d be 16 01 a1 3d df 00 b8 bd 9e 32 00 bf
       -0.15396078 0.07861535 -0.08984541 -0.50077236
000020 0e 29 36 be 9c ba 0d be 7e 01 c7 be b4 bb ca 3c
       -0.17789099 -0.13840717 -0.38868326 0.024747707
000030 c6 d5 3f 3e 8a 33 5c 3d 20 62 97 bd 96 2e 80 3e
       0.18733892 0.05376009 -0.07391763 0.25035542
000040 77 bc 00 3e 3a 2a 82 3c 81 ad 54 3e aa b1 ed bd
       0.12571894 0.015889276 0.20769311 -0.11606152
000050 6b e1 87 be 09 a4 e9 be f7 78 a6 3d 3d 86 4a 3f
       -0.26539168 -0.4563296 0.08128541 0.7911108
000060 4e 1c fe 3c e9 9a 95 bd a0 34 78 3f a1 66 28 be
       0.031019356 -0.073049374 0.969553 -0.164454
000070 0e 8d 4f 3e f7 82 8d 3d 56 b2 67 3e b0 70 d1 3e
       0.20268652 0.06909745 0.22626624 0.40906286
000080 89 23 2f be 52 49 d2 3d 7a 8c 82 bf c7 67 e7 be
       -0.171034 0.10267891 -1.019912 -0.45196363
000090 74 6e aa 3e bf e9 d0 bc 84 c5 aa 3d 5b 3f 8a be
       0.33287394 -0.025502084 0.08338454 -0.2700146
0000a0 76 2a 80 be 85 3b 72 be 8f 29 9d 3e e4 f8 08 be
       -0.25032395 -0.23655517 0.3069577 -0.13376194
0000b0 7c 9c ef 3e 2d 05 98 3d 52 67 cf bc ed f9 c9 3e
       0.46799076 0.07422862 -0.025317822 0.3944849
0000c0 a8 bd ad 3d 8a 1f 2a 3e 2d 77 91 bc eb d2 9d be
       0.0848344 0.16613594 -0.017757023 -0.3082498
0000d0 1d e2 81 3e 89 c3 82 bd ae de e0 be 2e 61 a2 3e
       0.25367823 -0.063849516 -0.4391989 0.31714767
0000e0 63 9b 9c 3e a0 33 d7 bd 6d d7 9c 3e c0 65 5e 3f
       0.305873 -0.105078936 0.30633107 0.8687401
0000f0 b8 db 21 3f ba 42 0b bf ae fd 95 bd 7d ee ab be
       0.6322589 -0.5439869 -0.07323776 -0.3358039

hardtanh_17_bias f4 [64]
000000 0f a9 62 3e 71 92 f0 3d f7 96 1b bd 60 49 85 bd
       0.22134803 0.117466815 -0.03798577 -0.06508136
000010 ba 54 94 3c 7e 90 fd bd cb 03 81 3d ff 69 e0 3b
       0.018106807 -0.12381075 0.062995516 0.006848573
000020 59 5a 95 be 4f 21 8f be c6 93 62 bc 1c 1a ac be
       -0.29170492 -0.279551 -0.013829177 -0.3361367
000030 d1 b7 20 3e e1 2f 5e bd dc 91 0a 3e 56 9e 16 3e
       0.1569512 -0.05424488 0.13532203 0.14708838
000040 54 79 aa 3d 40 f8 b3 be b4 03 17 3e dd 88 e7 3d
       0.08323923 -0.35150337 0.14747506 0.113054015
000050 86 39 56 3e 69 1a c8 3e c0 4b 49 3e a6 83 33 be
       0.20920381 0.3908265 0.19657803 -0.17530689
000060 51 f5 a0 3e b3 3c f9 3d d1 69 8e 3e 41 3e 26 3e
       0.31437162 0.121697806 0.27815107 0.16234685
000070 00 aa 42 b9 f6 4f 64 3d 9d 61 3b be e5 3c 3c bc
       -0.00018564612 0.05574032 -0.18298955 -0.011489128
000080 76 09 9a 3c ff 19 86 be 6c 55 35 3e 0e 67 07 be
       0.01880334 -0.26191708 0.17708367 -0.13222906
000090 31 cc 46 be b5 ab 4a be 94 77 69 3b 81 ae 20 3d
       -0.1941383 -0.19792064 0.0035624253 0.03922892
0000a0 bd 87 76 be 18 41 41 3d 94 93 19 3e 28 b8 16 3e
       -0.24075218 0.04718122 0.14997703 0.14718688
0000b0 47 8e 4b 3e b8 9e 89 3e b5 cc 1e bc 01 34 3c 3e
       0.19878493 0.26878905 -0.009692361 0.18379213
0000c0 54 c2 36 be 34 6b 5f bd dc a2 4a 3e 07 d1 0e bf
       -0.17847568 -0.054545596 0.19788688 -0.557877
0000d0 bb 76 0e be dc 8c 2f be 7c 14 6e 3d 5c 2a af bd
       -0.1391248 -0.17143577 0.058125004 -0.08553001
0000e0 5f 8b 4e bd 9b 63 37 bd c4 cb 7b bd 10 71 65 bd
       -0.050425883 -0.044772726 -0.061473623 -0.056016028
0000f0 ef c2 2a 3f 83 91 95 3e 5b 17 7c 3e a9 ef 29 be
       0.66703695 0.2921258 0.24618284 -0.1659533

hardtanh_19_bias f4 [64]
000000 c5 e9 54 3d 30 db 09 be f2 74 5d 3e 6d b5 8b be
       0.051980752 -0.1346252 0.21626642 -0.27286854
000010 d1 51 be 3e 80 82 c6 bb 26 f5 96 be 76 9e 19 3e
       0.37171796 -0.0060580373 -0.29483908 0.15001854
000020 af 2b 17 bf 71 7c 6b 3e 5a ef 88 bd d4 b7 bd be
       -0.5905103 0.2299669 -0.06686278 -0.37054312
000030 b6 a3 55 be 26 23 e6 be f3 5f af be 1b 52 8d be
       -0.20863232 -0.4494869 -0.3425289 -0.27601704
000040 ed 44 41 3e e2 c9 f4 bd d2 4b b4 bd f7 77 1a 3e
       0.1887395 -0.119525686 -0.08803524 0.15084825
000050 77 e4 17 3d 2d df 8c 3e 91 5f bd be 23 28 30 3d
       0.037083115 0.2751402 -0.36986974 0.043007027
000060 48 3f 8f bd 15 b3 ab bd 6e 45 55 3e 56 0c 43 3d
       -0.06994492 -0.083837666 0.20827267 0.047619186
000070 2e a6 8b 3c 5b c4 24 be 2a 61 09 bd ff ce 0a bf
       0.017047014 -0.16090529 -0.03353993 -0.542221
000080 75 2b 06 bf a7 42 e0 3d 77 1a af 3e 47 59 a3 3d
       -0.5241006 0.10950213 0.3419988 0.07976013
000090 e3 30 f0 bd d6 03 ca be 6a 99 aa bc a9 9c c6 3d
       -0.117280744 -0.39456052 -0.020825107 0.09697849
0000a0 04 f0 c9 3e 61 f8 b6 3e 18 a3 05 bc 95 aa 24 3d
       0.3944093 0.35736373 -0.00815656 0.040201742
0000b0 26 40 5f 3d 93 98 8c be b0 a0 be be 21 21 b7 be
       0.054504536 -0.27460155 -0.3723197 -0.35767463
0000c0 11 35 28 3e 69 4c 7b be a2 e9 73 bd dd 64 82 bd
       0.16426493 -0.24540867 -0.05954898 -0.063668944
0000d0 ee f4 01 be 51 33 64 3e e0 9f 48 3d 93 64 e9 bc
       -0.1269109 0.222852 0.048980594 -0.02849034
0000e0 44 0e 11 3e 1c 5c 70 be f1 79 11 bf a5 99 b8 be
       0.14165598 -0.23472637 -0.5682669 -0.3605472
0000f0 84 ba da be fc 0f b0 be 78 09 01 bd 08 37 42 3e
       -0.42720425 -0.34387195 -0.03150317 0.18966305
